src/dolphin/models/sliding_number/dqn_torch_latest.pth (torch, 516802 bytes, 10 tensors)

fc1.weight f4 [256, 81]
0	0x3bed5449	0.0072427136
1	0xbda3d187	-0.079989485
2	0xbdef6d0d	-0.11690722
3	0xbd84dd8f	-0.064875714
4	0xbd14e6df	-0.03635299
5	0xbd23e873	-0.040016603
6	0x3e1061de	0.14099833
7	0x3c12f255	0.008968909
8	0x3dd74e7f	0.10513019
9	0xbd88b951	-0.06675971
10	0xbcbf6d2a	-0.023367483
11	0xbd97f9a1	-0.0742066
12	0xbbcdff9e	-0.0062865755
13	0x3d21512a	0.039384045
14	0xbda33a0b	-0.07970055
15	0xbd1db5f7	-0.038503613
16	0x3e421542	0.18953422
17	0x3e470a52	0.1943753
18	0xbddcbfe3	-0.10778787
19	0x3dbcd173	0.09219637
20	0x3c4d7263	0.012539479
21	0xbd24645d	-0.040134776
22	0x3dd7a436	0.105293676
23	0xbd74bfcf	-0.059753235
24	0xbe1f2592	-0.15541676
25	0x3db73972	0.08946504
26	0x3cfe715a	0.03105991
27	0xbe159d1c	-0.14610714
28	0xbd44a1f5	-0.048006017
29	0x3c8327c4	0.016010173
30	0x3d86933e	0.06571053
31	0x3d10ed08	0.0353823
32	0x3d37cad0	0.04487115
33	0x3da1d4d3	0.07901921
34	0xbd1e9768	-0.03871861
35	0xbd238d2f	-0.039929565
36	0xbe10e11d	-0.14148374
37	0xbd8850af	-0.06656014
38	0x3d3b7858	0.045769066
39	0xbe0a6b8c	-0.13517588
40	0x3d0b78b1	0.034050647
41	0x3c83ceb3	0.016089773
42	0x3ce929af	0.02846226
43	0x3e16b625	0.1471792
44	0x3e61d299	0.22052993
45	0xbe0419fc	-0.12900537
46	0x3e486e1a	0.1957325
47	0x3d15f369	0.036609087
48	0xbd0aa426	-0.03384795
49	0xbc3eac72	-0.011637794
50	0xbc1e4b2f	-0.00966148
51	0xbb9907da	-0.0046701254
52	0x3e3f0a47	0.18656264
53	0xbaaa32aa	-0.001298507
54	0x3e33ec80	0.17570686
55	0xbd247cde	-0.040158145
56	0xbdf934c5	-0.12168268
57	0xbcff008b	-0.031128189
58	0x3dd3c8d5	0.1034104
59	0x3de0aca8	0.109704316
60	0xbcd93365	-0.026513765
61	0xbcb7120a	-0.022347469
62	0x3d3dfbea	0.046382822
63	0x3be0be13	0.006858596
64	0x3d9fa03c	0.07794234
65	0x3df07f90	0.117430806
66	0x3e022a67	0.12711488
67	0x3c93bcac	0.018034302
68	0x3ddecc38	0.108787954
69	0x3dba0d22	0.09084536
70	0xbe474313	-0.1945918
71	0xbdc78bab	-0.097434364
72	0x3e0f8a3a	0.14017573
73	0x3df5d226	0.12002973
74	0xbd2725a4	-0.04080738
75	0x3dcfcc22	0.10146357
76	0xbdd53cc6	-0.10411982
77	0xbdaf4700	-0.08558464
78	0x3de258c8	0.1105209
79	0xbe944575	-0.28959242
80	0xbc0d7781	-0.008634449
81	0xbe099009	-0.13433851
82	0xbd74d705	-0.05977537
83	0xbd30a5d4	-0.043126896
84	0xbc885f4c	-0.016647004
85	0x3dd41a43	0.103565715
86	0xbab2ed4a	-0.001365104
87	0x3d556e94	0.05210741
88	0x3cf1f35c	0.029534988
89	0xbd45d132	-0.048295207
90	0xbe267e4f	-0.1625912
91	0xbe1e3ae2	-0.1545215
92	0xbd464255	-0.048403103
93	0x3c1463b6	0.009056976
94	0xbc7520e1	-0.014961452
95	0x3dbfb47d	0.09360597
96	0x3d75a77f	0.05997419
97	0xbdb6ee7f	-0.08932208
98	0x3d98d8d3	0.07463231
99	0xbd85cdbb	-0.065333806
100	0x3d1820a1	0.037140492
101	0xbdb6a06b	-0.08917316
102	0xbdd161e0	-0.10223746
103	0xbd8da16e	-0.06915556
104	0x3d8510c1	0.06497336
105	0x3da20c35	0.079124846
106	0x3ddc3c5f	0.10753702
107	0x3d6920a5	0.056915898
108	0x3d598d49	0.053113256
109	0x3e23bf81	0.15991022
110	0x3db6a0a0	0.089173555
111	0x3d839323	0.064245485
112	0xbd132a2e	-0.035928898
113	0x3c2780dd	0.0102235945
114	0xbd0f95f0	-0.0350551
115	0xbe190e77	-0.14946924
116	0xbdadf1a8	-0.08493358
117	0xbd6b808f	-0.05749565
118	0xbd81b2de	-0.06332944
119	0x3ea1c0d8	0.3159244
120	0xbe14c2a2	-0.14527372
121	0xbe172bcf	-0.14762805
122	0xbcff1aad	-0.03114065
123	0xbcd787d4	-0.026309885
124	0xbe3021ce	-0.17200395
125	0x3cb7b46d	0.0224249
126	0x3d0dfe0f	0.034666117
127	0x3ce50570	0.027956694
128	0xbdd6df6d	-0.10491834
129	0x3e125d71	0.14293458
130	0xbe02bd77	-0.12767588
131	0xbc9b576a	-0.01896258
132	0xbcc7d537	-0.024393661
133	0x3e0a9273	0.13532428
134	0x3d73e7f3	0.059547376
135	0x3dceae19	0.100918
136	0x3d266bb4	0.040630057
137	0xbe4a0e6d	-0.19732065
138	0x3c6e56f0	0.014547095
139	0x3c21eb72	0.009882795
140	0x3d0c1631	0.03420085
141	0x3c0f8daf	0.008761807
142	0x3d7544e2	0.059880145
143	0xbdf433fc	-0.11923978
144	0x3db2b1fc	0.08725354
145	0x3d4859c4	0.048913732
146	0x3e1e07fa	0.1543273
147	0xbdd3b8ff	-0.103380196
148	0x3d9727ed	0.07380662
149	0xbd497d92	-0.04919202
150	0xbda9ec0b	-0.08296975
151	0x3c98dad8	0.01865904
152	0xbba8005f	-0.0051269974
153	0x3e020df4	0.12700635
154	0xbdbb2ce7	-0.09139424
155	0x3c2b438d	0.010453117
156	0x3dc70729	0.097181626
157	0x3db4682a	0.0880893
158	0xbd80f5f7	-0.06296914
159	0xbce54e27	-0.027991368
160	0xbbcf9b62	-0.0063356617
161	0xbd819d4d	-0.06328831
162	0xbe85a5d6	-0.26103085
163	0xbda67c8e	-0.08129226
164	0x3c284633	0.010270643
165	0x3e14da2f	0.14536355
166	0x3de84a3f	0.11342286
167	0x3d7321b3	0.05935831
168	0xbd14c72a	-0.03632275
169	0x3d4c26e9	0.049841795
170	0x3dae1a51	0.08501113
171	0xbe507386	-0.20356569
172	0x3d445681	0.04793406
173	0xbd55f6b5	-0.05223723
174	0x3afec070	0.0019436013
175	0x3e176651	0.14785124
176	0x3d1c5ccb	0.03817443
177	0xbe1e8c90	-0.15483308
178	0x3d126577	0.035741296
179	0xbe094a02	-0.13407138
180	0xbd531806	-0.051536582
181	0x3c093c93	0.008376258
182	0x3da059a4	0.078295976
183	0x3c64f38b	0.013974081
184	0x3cc4f4ae	0.024042454
185	0x3cb1112f	0.02161464
186	0xbdbc97b4	-0.092086226
187	0xbc8becf6	-0.017080765
188	0xbd6fc3e8	-0.05853644
189	0x3e40f3cb	0.18843
190	0x3d3f7ac4	0.046747938
191	0x3d6dd3d1	0.058063332
192	0xbcb372d1	-0.021905335
193	0xbdca14d7	-0.09867256
194	0xbd40adaf	-0.047040638
195	0xbdb592dc	-0.08865902
196	0x3c315048	0.010822363
197	0xbdacb884	-0.08433631
198	0x3dfecb7d	0.12441156
199	0xbe030ce6	-0.12797889
200	0x3d9869b9	0.0744204
201	0x3e894e96	0.2681777
202	0xbe4fff2c	-0.20312184
203	0x3c5964a7	0.013268626
204	0x3dde0117	0.108400516
205	0xbe941ea8	-0.2892964
206	0x3d4b0c67	0.049572375
207	0x3e03fc33	0.12889175
208	0xbdc24d29	-0.094873734
209	0x3a9cc0b4	0.0011959285
210	0x3cb2dce7	0.02183385
211	0xbce263cd	-0.02763548
212	0x3c99f19e	0.01879197
213	0x3d85204b	0.065003
214	0xbd9a910b	-0.07547196
215	0x3c3b6c2e	0.011439366
216	0xbddcac3a	-0.10775037
217	0x3deeae32	0.11654319
218	0x3d7247f8	0.059150666
219	0x3c460b62	0.012087675
220	0x3d8d65a9	0.06904156
221	0x3cf0e0af	0.029404012
222	0x3e1dcc74	0.15410024
223	0x3df50e22	0.11965586
224	0xbd7eb83d	-0.062187422
225	0xbdaba098	-0.0838024
226	0x3e290d42	0.16508964
227	0xbd9f23e1	-0.07770515
228	0xbd354b37	-0.044261184
229	0x3d3090a4	0.04310669
230	0xbd40a32e	-0.04703062
231	0xbdb5d85a	-0.088791564
232	0x3dc295cd	0.095012285
233	0x3c9b12a4	0.018929787
234	0x3d9a1054	0.075226456
235	0xbdad7499	-0.08469505
236	0xbcd6a859	-0.026203321
237	0xbbe1172d	-0.006869218
238	0x3b0d4a38	0.002155913
239	0x3dc6953d	0.09696434
240	0xbd2efe6a	-0.042723097
241	0x3c67afed	0.014141065
242	0x3c69012a	0.014221469
243	0xbbc08474	-0.0058751646
244	0xbc704519	-0.014664912
245	0xbc59d404	-0.013295177
246	0xbdaed08d	-0.08535872
247	0x3d908b3c	0.07057807
248	0xbe83e05b	-0.25757107
249	0xbde03406	-0.10947423
250	0xbd99b618	-0.07505435
251	0x3d92530d	0.07144747
252	0x3df4ead0	0.119588494
253	0x3d806d1d	0.06270812
254	0x3c02ffd3	0.007995564
255	0xbd768f77	-0.060195412

fc1.bias f4 [256]
0	0x3dab7439	0.08371777
1	0x3d08f11a	0.033433057
2	0x3be762ce	0.007061339
3	0xbc4fba27	-0.0126786595
4	0xbbc74fc6	-0.006082508
5	0xbde67ee3	-0.112546705
6	0xbd206399	-0.039157484
7	0x3d92f321	0.071752794
8	0x3c5676c3	0.013089838
9	0xbd051de9	-0.032499228
10	0x3cfdefca	0.03099813
11	0x3d45edf8	0.048322648
12	0xbb364f0a	-0.0027818107
13	0xbcbd4880	-0.02310586
14	0xbc0d1b59	-0.008612477
15	0xbda47005	-0.080291785
16	0x3d64f7d7	0.05590042
17	0xbd57c783	-0.052680504
18	0xbdc08051	-0.093994744
19	0x3af5fcbb	0.0018767336
20	0x3d8b86a1	0.06812788
21	0xbd89a21d	-0.06720374
22	0xbc9e5eba	-0.019332279
23	0x3d1cb7e4	0.03826131
24	0x3d5551d6	0.052079998
25	0xbd2176a6	-0.039419793
26	0xbd8c63df	-0.068549864
27	0xbd475a5c	-0.048670158
28	0xbb8767ff	-0.0041322703
29	0x3d99b22a	0.07504685
30	0xbc103913	-0.00880267
31	0xbd8be5e4	-0.068309575
32	0x3c251d2d	0.010077757
33	0x399b66f0	0.00029640598
34	0x3d187ff3	0.037231397
35	0x3be12355	0.006870667
36	0xbd91a107	-0.07110792
37	0xbd5d10ef	-0.053971227
38	0x3cfad241	0.030617835
39	0xbd0a191a	-0.033715345
40	0xbd5fa58c	-0.054601237
41	0x3dee4bbc	0.11635539
42	0x3d416e64	0.047224417
43	0x38c24410	9.2633185e-05
44	0x3da410e8	0.08011037
45	0xbd89733a	-0.06711431
46	0x3dc56834	0.09639016
47	0xbdc62b01	-0.09676171
48	0x3d638908	0.055550605
49	0x3a938790	0.0011255611
50	0x3bd36429	0.006451149
51	0xbd333172	-0.043748327
52	0xbdad0bc6	-0.08449511
53	0xbda7f9ea	-0.08201964
54	0x3d914419	0.07093067
55	0xbc163ff8	-0.009170525
56	0xbdc700c1	-0.09716941
57	0x3dc3211a	0.09527798
58	0xbda1fede	-0.0790994
59	0x3d4bf3e9	0.049793158
60	0x3dce7cb4	0.10082379
61	0xbcbdd3a7	-0.023172213
62	0xbdc4303b	-0.09579512
63	0xbd24ea7f	-0.040262695
64	0x3c5eb981	0.013594032
65	0xbb4e6fc6	-0.0031499728
66	0xbd48cf7c	-0.049025998
67	0xbdefcab0	-0.117085814
68	0xbd445073	-0.047928285
69	0x3d74f9b0	0.059808433
70	0xbd807cd8	-0.06273812
71	0x3d8564ef	0.06513392
72	0x3cc69844	0.024242528
73	0x3dac9a98	0.08427924
74	0xbcadd072	-0.021217559
75	0x3d4799d0	0.04873067
76	0xbde5ef05	-0.1122723
77	0x3da4f63e	0.080547795
78	0x3d784e48	0.06062153
79	0xbdadf475	-0.08493892
80	0xbdae71dd	-0.085178114
81	0xbdafc488	-0.08582407
82	0x3d86758b	0.06565388
83	0x3d720a80	0.059092045
84	0xbd49712c	-0.049180195
85	0xbd7229d1	-0.05912191
86	0xbd96b841	-0.073593624
87	0x3ca74800	0.020420074
88	0x3c8e5bbf	0.017377732
89	0xbd78762e	-0.06065958
90	0x3d0c798b	0.0342956
91	0xbdd1349c	-0.102151126
92	0x3c9c1b01	0.019055845
93	0x3d4611dc	0.048356876
94	0xbd3a258b	-0.04544596
95	0xbd94b0a8	-0.07260257
96	0x3dc028bf	0.09382772
97	0xbd9f3a5b	-0.07774802
98	0x3db13477	0.08652585
99	0xbc568546	-0.013093298
100	0xbd65a030	-0.05606097
101	0x3c07e5ff	0.008294581
102	0xbb78c154	-0.003795703
103	0x3d92ccaa	0.07167943
104	0xbd89ba27	-0.06724959
105	0xbd924fdd	-0.07144139
106	0xbdcaa7d2	-0.098952904
107	0xbbfff8f8	-0.007811662
108	0xbd25d416	-0.040485464
109	0x3d99cab5	0.075093664
110	0x3c3d286a	0.01154528
111	0x3ce83ce5	0.02834935
112	0x3d648bf7	0.055797543
113	0xbcceb218	-0.025231406
114	0xbd50fe23	-0.051023614
115	0x3dbf87cd	0.09352074
116	0x3df54750	0.119764924
117	0x3d269155	0.040665943
118	0xbd298f73	-0.04139657
119	0xbd9bfb5f	-0.076163046
120	0x3cdcc67c	0.026950113
121	0xbcc04e46	-0.023474824
122	0x3dafb789	0.085799284
123	0x3d6d94d7	0.058003273
124	0xbde1d586	-0.110270545
125	0xbdda60a1	-0.10662962
126	0x3d779303	0.060442936
127	0xbc01a099	-0.007911825
128	0x3d809fba	0.062804654
129	0xbdb95830	-0.090500236
130	0x3d4c3da4	0.049863473
131	0xbdb31d8d	-0.08745871
132	0xbd26ab72	-0.040690847
133	0xb8a3fa65	-7.819085e-05
134	0x3d959d72	0.07305421
135	0x3d0b9b72	0.03408379
136	0x3d95ead4	0.073201805
137	0x3c9a03f8	0.01880072
138	0xbda0383c	-0.07823226
139	0xbd4c8a19	-0.049936388
140	0xbd7f9289	-0.062395606
141	0x3d816a2d	0.063190795
142	0xbd093787	-0.03350022
143	0x3de14e3b	0.110012494
144	0x3d3fd614	0.04683502
145	0x3d947ea0	0.07250714
146	0xbd225855	-0.03963502
147	0x3bc4b246	0.006002697
148	0xbd924fc5	-0.07144121
149	0xbd21d849	-0.039512906
150	0xbdaee730	-0.08540189
151	0xbd0bc3e4	-0.034122363
152	0xbdba3118	-0.09091395
153	0x3da54cf7	0.080713205
154	0xbd0f701f	-0.035019036
155	0xbd269581	-0.04066992
156	0xbce73570	-0.028223723
157	0x3d68b87d	0.056816567
158	0x3d9d43d5	0.076789536
159	0x3d97122e	0.073765144
160	0x3d2c82b1	0.042116825
161	0xbda38de2	-0.079860464
162	0xbdc7b2d8	-0.097509086
163	0x3d9914e0	0.07474685
164	0xbd63baa7	-0.055597927
165	0xbd96c670	-0.07362068
166	0xbc8eb886	-0.017421972
167	0xbd6c431c	-0.057681188
168	0x3da8eb05	0.082479514
169	0xbd99a53f	-0.07502221
170	0x3d49dd4b	0.049283307
171	0x3d0871d6	0.033311687
172	0x3d1c4a88	0.038157016
173	0xbd354a6e	-0.044260435
174	0xbd637334	-0.055529788
175	0x3cd35511	0.025797399
176	0xbdb6d7be	-0.08927868
177	0xbba7cb65	-0.005120682
178	0x3db488fb	0.088151895
179	0x3dffe080	0.12493992
180	0x3d071920	0.032982945
181	0x3c2b5428	0.010457076
182	0x3c95fdba	0.018309463
183	0x3d8d256e	0.06891905
184	0x3d4fc587	0.050725486
185	0x3bf747c4	0.007546397
186	0x3d39df5b	0.045379024
187	0x3df30649	0.11866433
188	0xbd55e15c	-0.052216873
189	0x3b3b8517	0.0028613263
190	0x3c2ddd66	0.0106118675
191	0x3be4e14c	0.0069848653
192	0x3d97e998	0.07417601
193	0x3b84c5c5	0.0040518963
194	0xbce5425d	-0.027985746
195	0xbd969275	-0.07352153
196	0xbc04972b	-0.008092682
197	0xbdd6695e	-0.10469316
198	0xbd1a0862	-0.03760565
199	0x3d291436	0.04127904
200	0x3d24953a	0.040181376
201	0x3d575409	0.052570377
202	0xbdc246b7	-0.09486144
203	0xbc842827	-0.016132427
204	0x3d1ddbf3	0.038539838
205	0xbccd1509	-0.025034444
206	0x3d935f11	0.07195867
207	0xbd5db8a9	-0.054131184
208	0x3d45ed24	0.048321858
209	0x3d9dc54e	0.077036485
210	0x3da20e69	0.07912905
211	0xbcce93a2	-0.025216881
212	0x3d3e2dc7	0.046430375
213	0xbd10a8e9	-0.035317335
214	0x3c82d32a	0.015969831
215	0x3d02df94	0.031951502
216	0x3d1c3345	0.038134832
217	0x3c0462b4	0.008080173
218	0xbd736b40	-0.059428453
219	0x3d71b713	0.059012484
220	0xbda9fcc4	-0.08300164
221	0xbc1f6d18	-0.0097306
222	0x3d04b82c	0.032402202
223	0x3d6f6156	0.058442436
224	0xbdaa7111	-0.08322347
225	0xbb86dcb5	-0.004115666
226	0x3d10ac6b	0.03532068
227	0xbd94d5b3	-0.072673224
228	0x3d1a4f9b	0.037673574
229	0xbc9924e6	-0.018694352
230	0xbd1e3ef8	-0.03863427
231	0x3c8b9bec	0.017042123
232	0xbdd22c49	-0.10262353
233	0x3d0e6c60	0.034771323
234	0x3cf1c3f0	0.029512376
235	0xbdc4c462	-0.096077695
236	0xbdb9f9c0	-0.09080839
237	0xbd6d0db8	-0.05787441
238	0x3d3a7d2d	0.045529533
239	0xbd04ead8	-0.032450527
240	0xbdb49304	-0.088171035
241	0xbcdd1331	-0.02698669
242	0xbdd6a89f	-0.10481381
243	0x3c219cb4	0.009864021
244	0x3dbfb865	0.09361342
245	0x3ba8a7da	0.0051469626
246	0x3ddeed11	0.108850606
247	0xbd7d57a2	-0.06185115
248	0x3d5f4128	0.054505497
249	0xbcb792ba	-0.022408832
250	0x3d209669	0.039205942
251	0xbd5d5e30	-0.054044902
252	0x3db92dd1	0.09041942
253	0xbdcd4405	-0.10022739
254	0x3d59c624	0.053167477
255	0x3d2f815f	0.042847987

fc2.weight f4 [256, 256]
0	0x393b357d	0.00017853636
1	0xbb88637f	-0.0041622515
2	0x3d217ed7	0.039427605
3	0xbd7c6fbf	-0.061630007
4	0xbd6cd26f	-0.057817873
5	0xbcaceada	-0.02110808
6	0xbdc15aa5	-0.09441117
7	0x3d27da83	0.040979873
8	0x3bc9523d	0.006143837
9	0x3db57cc0	0.08861685
10	0x3cae9dc3	0.021315461
11	0x3da2078e	0.07911597
12	0xbc74bb8d	-0.014937294
13	0xbd0ca735	-0.03433915
14	0xbd7f94ad	-0.062397648
15	0xbcc027e6	-0.023456525
16	0x3d56bf1e	0.052428357
17	0x3cd36f31	0.025809856
18	0x3d2769bc	0.04087232
19	0xbda21db8	-0.07915825
20	0x3d1f2452	0.038852997
21	0x3c00cdf2	0.007861601
22	0xbd312231	-0.043245498
23	0x3dd6d9ab	0.104907356
24	0xbb3b769b	-0.002860463
25	0xbd7b7086	-0.061386608
26	0xbcf6cef1	-0.030127974
27	0x3bf22743	0.0073899343
28	0x3d87a1d3	0.066226624
29	0xbd88c898	-0.06678885
30	0xbc27edc0	-0.010249555
31	0xbcb773b1	-0.022394033
32	0xbbc3443d	-0.0059590624
33	0x3d398b78	0.045299023
34	0xbca47b2c	-0.020078264
35	0xbd977c63	-0.07396772
36	0x3d09901c	0.0335847
37	0xbc9b31ea	-0.0189447
38	0x3d13d6a8	0.036093384
39	0xbb943de7	-0.004523981
40	0x3cb47b2b	0.022031387
41	0x3c8a1997	0.016857905
42	0x3d09dca9	0.033657704
43	0xbd6d080b	-0.057869
44	0x3cbb45f3	0.022860503
45	0x3d433105	0.04765417
46	0x3d5d6e9c	0.054060563
47	0x3d701988	0.0586181
48	0x3d09a94d	0.033608723
49	0xbc1e4c6c	-0.009661775
50	0x3d2e96e4	0.04262437
51	0x3d4fc4fb	0.050724965
52	0xbc2fc15c	-0.010727253
53	0x3c0c8811	0.008577363
54	0x3c9c5978	0.01908563
55	0x3c97d61e	0.018534716
56	0x3d93c5fe	0.072154984
57	0x3cb13c9e	0.02163535
58	0xbdd10984	-0.10206893
59	0x3bd706d7	0.0065620947
60	0xbdf41cef	-0.11919581
61	0x3c623d19	0.013808512
62	0xbd88c94c	-0.06679019
63	0x3d3bf8bf	0.04589152
64	0xbb69150f	-0.003556553
65	0xbc381f0a	-0.011237869
66	0xbc31451c	-0.0108197
67	0x3c503d22	0.012709888
68	0xbb5b37eb	-0.0033450078
69	0xbd4122fe	-0.04715251
70	0xbd1ad8cf	-0.03780442
71	0x3d010b5f	0.031504985
72	0x3bde7817	0.006789218
73	0xbd288d55	-0.04115041
74	0x3d88e392	0.066840306
75	0xbbabdb49	-0.0052446467
76	0xbc0b06ae	-0.008485479
77	0x3d59b6a6	0.053152703
78	0x3d619ad5	0.0550793
79	0x3d47d6f0	0.048788965
80	0x3c4997cc	0.012304258
81	0x3c83e0d9	0.016098427
82	0x3b77fa37	0.0037838349
83	0x3c718f65	0.014743661
84	0xbc4ab3cf	-0.012371971
85	0xbb5a6487	-0.003332408
86	0x3df3c1ba	0.11902185
87	0xb962bc6f	-0.00021623237
88	0x3dfb6909	0.12275893
89	0xbd08bba4	-0.033382073
90	0xbdb9f468	-0.0907982
91	0xbd326817	-0.0435563
92	0x3cb43512	0.021997962
93	0x3d8390f1	0.0642413
94	0x3babe5a2	0.00524588
95	0xbd71009a	-0.058838464
96	0x3b8ca433	0.004292035
97	0x3c5583ad	0.013031882
98	0x3cd359d1	0.025799664
99	0xbc10224d	-0.00879724
100	0x3c6d9897	0.014501712
101	0x3d63f111	0.05564982
102	0x3d9c1c78	0.076226175
103	0x3cf1b58e	0.029505517
104	0xbd589090	-0.05287224
105	0x3ca36082	0.01994348
106	0x39aa40b4	0.00032473134
107	0x3c625571	0.013814316
108	0xbc3b8ae7	-0.011446691
109	0x3d6b605a	0.057464935
110	0xbd54fbe7	-0.051998045
111	0x3da4a4c8	0.08039242
112	0x3d47700f	0.04869085
113	0x3d175410	0.036945403
114	0xbbe8496f	-0.007088832
115	0x3cdbea38	0.026845083
116	0xbd69db31	-0.057093803
117	0x3ccf8f11	0.025336774
118	0x3cf9b25b	0.030480554
119	0xbde75d87	-0.11297136
120	0xbbeb59de	-0.007182344
121	0x3d21d169	0.03950635
122	0x3d8aa5ab	0.0676988
123	0x3d97b41e	0.074074015
124	0x3d9903cb	0.074714266
125	0xbddcdaea	-0.10783942
126	0x3df2039a	0.11817093
127	0x3b3d39dd	0.00288736
128	0x3db797bd	0.08964489
129	0x3d13bc47	0.036068227
130	0x3b92a0d6	0.0044747395
131	0xbc03b56b	-0.008038859
132	0xbd017915	-0.031609613
133	0xbce2bdb5	-0.02767835
134	0xbd8d9c3e	-0.069145665
135	0xbd4f55c2	-0.050618894
136	0x3d7c9c84	0.061672702
137	0xbc6a718a	-0.014309296
138	0x3d4bed08	0.049786597
139	0x3cbf7634	0.023371793
140	0xbdda6b45	-0.10664991
141	0x3df2fa0f	0.11864101
142	0xbd5775a9	-0.052602444
143	0x3da56681	0.08076192
144	0x3d745dde	0.05965983
145	0xbd5161ce	-0.051118664
146	0x3cb74207	0.022370351
147	0x3cc869fd	0.024464602
148	0x3d00ad54	0.0314153
149	0xbdb721c2	-0.08941986
150	0x3d24e582	0.04025794
151	0xbbd1cfb9	-0.0064029363
152	0x3d1dc723	0.03851999
153	0x3d6b3505	0.05742361
154	0x3badb59f	0.005301192
155	0x3ce2a568	0.027666762
156	0x3d34ccc1	0.04414058
157	0x3cb1869c	0.021670632
158	0x3d19f1db	0.037584167
159	0xbd951e43	-0.072811626
160	0xbcf22dd3	-0.029562866
161	0x3dbe7ed3	0.093015336
162	0x3cd2f8dc	0.025753431
163	0x3dcaa714	0.09895149
164	0x3bf8ede6	0.007596719
165	0x39ac22fd	0.00032832465
166	0x3dd0ff13	0.102049015
167	0xbadb2771	-0.0016720128
168	0xbc8b32eb	-0.016992053
169	0x3c866c90	0.016409189
170	0xbda5833c	-0.080816716
171	0xbd15a38d	-0.036532927
172	0x3d5173fa	0.051135994
173	0x3d680982	0.056649692
174	0xbd8c9446	-0.068642184
175	0x3dd2c758	0.10291928
176	0x3d5dd5cf	0.054158982
177	0xbc57d2a3	-0.013172778
178	0xbca452fb	-0.0200591
179	0x3c337366	0.010952806
180	0x3cf25fb2	0.029586647
181	0x3c5a8f8f	0.013339891
182	0xbd394892	-0.045235224
183	0x3c13c2bf	0.009018599
184	0x3d9680a0	0.07348752
185	0xbcc9e1e3	-0.024643844
186	0xbd1502fd	-0.036379803
187	0xbcfbe9c9	-0.030751126
188	0x3c15ecd0	0.009150699
189	0x3dbdda1e	0.09270118
190	0x3cd9b5e9	0.026576
191	0x3ceaa099	0.028641032
192	0xbcd5814d	-0.026062632
193	0xbca4488a	-0.02005412
194	0x3df15b0a	0.117849424
195	0x3da09be0	0.07842231
196	0x3d73027b	0.059328537
197	0x3ce7cc04	0.028295524
198	0xbd51f2cc	-0.05125694
199	0xbcbe3323	-0.023217743
200	0xbd30c474	-0.043156102
201	0x3daba489	0.08380992
202	0x3d966ec6	0.07345347
203	0xbc98d644	-0.018656857
204	0xbdbd9e6b	-0.092587315
205	0x3d70de7e	0.058805935
206	0xbc56e370	-0.013115749
207	0xbafe58e9	-0.0019405159
208	0x3c934128	0.017975405
209	0x3cb55aed	0.022138083
210	0x3bae88ef	0.0053263824
211	0x3d31e032	0.0434267
212	0x3d950e26	0.07278089
213	0x3d39de62	0.045378096
214	0xbcab8ec9	-0.020942109
215	0x3cf81a64	0.030286022
216	0xbd037169	-0.03209058
217	0xbccd134d	-0.025033617
218	0x3dc6f4f9	0.097146936
219	0x3d8b18f4	0.06791869
220	0xbd911c37	-0.0708546
221	0x3d181bf0	0.03713602
222	0x3de1f5c0	0.11033201
223	0xbc228517	-0.009919426
224	0xbc806396	-0.015672486
225	0xbb810781	-0.003937662
226	0x3cc18781	0.023624184
227	0x3cffc7dd	0.031223232
228	0x3ca565b6	0.020190101
229	0x3d173384	0.036914364
230	0x3b23b7c1	0.0024981352
231	0xbc571fe1	-0.013130159
232	0x3c672b63	0.014109465
233	0x3d647585	0.055776138
234	0xbdb94c92	-0.09047808
235	0xba6dc8ad	-0.00090707355
236	0xbc2c47f4	-0.010515202
237	0xbd479b06	-0.048731826
238	0x3c831289	0.01600005
239	0xbc1e0181	-0.009643913
240	0x3c3cf22f	0.01153235
241	0xbd6f03e1	-0.05835331
242	0x3c8ebb4a	0.01742329
243	0x3d50b9d6	0.050958477
244	0x3cae886e	0.02130529
245	0x3d59f5e1	0.053213004
246	0x3d24862a	0.04016701
247	0x3c4c22fd	0.012459514
248	0xbb047da0	-0.002021648
249	0xbc9cf4f5	-0.019159773
250	0x3d802377	0.062567644
251	0xbd816340	-0.063177586
252	0x3ca90efa	0.020637024
253	0x3c6aa3a6	0.014321243
254	0x3cf1464f	0.029452471
255	0x3c27e6c6	0.010247892

fc2.bias f4 [256]
0	0x3cd47885	0.025936374
1	0x3c73fd76	0.014891973
2	0xbd0c0c1b	-0.034191232
3	0xbb86a1f8	-0.0041086636
4	0xbd59b14c	-0.0531476
5	0xbda20fb5	-0.07913152
6	0x3d1b8f9b	0.03797875
7	0xbdbc3ff5	-0.09191886
8	0x3d0f979b	0.03505669
9	0xbb973417	-0.004614364
10	0xbb150a00	-0.0022741556
11	0xbd83fdce	-0.06444894
12	0x3d5e411a	0.054261304
13	0x3bd4abbf	0.0064902003
14	0x3ce1278a	0.027484674
15	0x3c4ce49a	0.012505675
16	0xbba9c145	-0.00518051
17	0xbda45168	-0.080233395
18	0x3d050374	0.032473996
19	0x3d97b8b6	0.07408278
20	0x3c6ee80b	0.014581691
21	0xb9c9d5f3	-0.00038497112
22	0xbbe7a9b7	-0.007069792
23	0xbd6d30e5	-0.057907958
24	0xbc94fbfe	-0.018186565
25	0x3cddb712	0.027064834
26	0x3cc2eabb	0.023793569
27	0xbd4ebc61	-0.05047262
28	0xbdb9152a	-0.0903724
29	0xbd07696f	-0.033059534
30	0xbc474904	-0.012163404
31	0xbc24bd71	-0.010054932
32	0x3ce72a8c	0.02821853
33	0x3cab2c65	0.020895192
34	0xbbd14ef1	-0.0063875844
35	0xbd058a46	-0.03260257
36	0xbd8694c5	-0.06571344
37	0xbbc3d326	-0.0059760986
38	0xbccb0362	-0.024781886
39	0x3cbabeda	0.022796083
40	0x3cb138cd	0.02163353
41	0xbca7bc20	-0.020475447
42	0xbc499007	-0.012302405
43	0xbd42a0e3	-0.047516715
44	0xbc99b552	-0.018763218
45	0x3c94564f	0.018107561
46	0x3d503b8a	0.05083803
47	0x3d0b9d6e	0.034085684
48	0xbd10aad6	-0.03531917
49	0xbd000f4d	-0.031264592
50	0xbda7c1c5	-0.081912555
51	0xbcb10ddf	-0.02161306
52	0x3d2c3beb	0.04204933
53	0x3ca9adb6	0.020712715
54	0x3c977dbf	0.018492578
55	0xbcd9dbf2	-0.026594136
56	0x3d0d7793	0.034537863
57	0xbad64ff2	-0.001635073
58	0x3d38d22c	0.04512231
59	0xbceb4697	-0.028720183
60	0xbcc4eceb	-0.024038753
61	0xbd46f291	-0.048571173
62	0x3d0161f3	0.031587552
63	0x3d7c2d22	0.06156648
64	0x3b009ac5	0.00196235
65	0xbced465b	-0.028964212
66	0xbd4f13cb	-0.050555985
67	0x3dadd346	0.08487563
68	0x3d93554f	0.07194006
69	0xbd193442	-0.037403353
70	0xbcf3a198	-0.02974014
71	0x3cd9e970	0.02660057
72	0xbc7a7246	-0.015286034
73	0xbd761d58	-0.060086578
74	0xbdb52399	-0.0884468
75	0x3d3c0c3c	0.045910105
76	0xbd7b3adc	-0.06133543
77	0xbcafb5f6	-0.02144907
78	0x3d571dfa	0.052518822
79	0x3d59f95d	0.053216327
80	0x3d581589	0.052754913
81	0x3d0f3976	0.03496691
82	0xbd0d34b5	-0.034474093
83	0xbd9346b9	-0.07191224
84	0xbcc3600a	-0.023849506
85	0xbd81fb6f	-0.06346785
86	0x3cbb75ab	0.022883257
87	0x3c968641	0.018374564
88	0x3bd9b152	0.0066434527
89	0x3d6652a6	0.056231163
90	0xbce179ea	-0.027523953
91	0xbd169475	-0.036762673
92	0xbd909bf1	-0.070609935
93	0xbcc0413c	-0.023468606
94	0x3d3af4f0	0.045643747
95	0xbc864e3d	-0.016394729
96	0xbd3fbe49	-0.04681233
97	0x3c90dcfb	0.017683497
98	0x3c0aaa95	0.0084635215
99	0x3d9cfddf	0.076656096
100	0xbd1205aa	-0.035649933
101	0xbd814a7d	-0.06313036
102	0xbcccf6d8	-0.025020048
103	0xbda3b944	-0.07994321
104	0xbd0ec4b7	-0.03485557
105	0x3c766d8f	0.015040769
106	0x3bab57da	0.0052289786
107	0xbd8cbb42	-0.06871654
108	0x3c6d4a95	0.014483114
109	0xbdb01977	-0.08598607
110	0x3db90ef0	0.09036052
111	0xbd457e3c	-0.04821609
112	0xbcc672ee	-0.024224725
113	0x3b98fcf2	0.0046688253
114	0x3ca157fe	0.019695278
115	0xbbbcff65	-0.00576775
116	0x3b752523	0.0037406168
117	0xbd2d99de	-0.042383067
118	0xbd6a9715	-0.05727299
119	0xbc239792	-0.009984868
120	0xbd8fcfa4	-0.07022026
121	0xbd6776a4	-0.05650963
122	0xbc6f1bd2	-0.014594035
123	0xbcab2927	-0.020893646
124	0xbd608664	-0.054815665
125	0xbd285c20	-0.041103482
126	0x3c4886b6	0.012239149
127	0x3d80b3e2	0.0628431
128	0x3d87c618	0.0662958
129	0xbd166584	-0.036717907
130	0xbcecd950	-0.028912216
131	0xbc420b0a	-0.011843452
132	0x3c1e9885	0.009679918
133	0x3c2d7ee8	0.010589339
134	0xbc84f55f	-0.016230283
135	0xbd205504	-0.039143577
136	0xbc2f3cab	-0.010695617
137	0x3c4e8367	0.012604571
138	0xbbaf8d80	-0.0053574443
139	0x3c2b464a	0.01045377
140	0xbd569fcd	-0.05239849
141	0x3d1d9493	0.03847177
142	0xbc95153b	-0.0181986
143	0xbc3369ba	-0.0109505
144	0xbd5482f0	-0.051882684
145	0xbd88895a	-0.06666823
146	0xbda515da	-0.080608085
147	0xbd4db245	-0.05021884
148	0xbd26b878	-0.040703267
149	0xbd9eeb4a	-0.077597216
150	0x3d2bddfd	0.04195975
151	0xbdbb2e84	-0.091397315
152	0x3cd0a841	0.025470855
153	0x3ce56534	0.028002359
154	0xbd420074	-0.047363713
155	0xbd74321c	-0.0596181
156	0xbca212b3	-0.019784307
157	0xbd7c1b0b	-0.061549228
158	0xbc5e7782	-0.013578298
159	0xbd89b02c	-0.06723055
160	0xbcd6bd20	-0.026213229
161	0x3d60512b	0.054764908
162	0xbaf2f40b	-0.0018535865
163	0x3da2e2f0	0.07953441
164	0x3c29a9c0	0.010355413
165	0x3b8702bd	0.0041201995
166	0xbcb0b35b	-0.021569898
167	0xbcc875cb	-0.02447023
168	0x3a0b09c1	0.00053038826
169	0xbdab15f7	-0.08353799
170	0x3c141134	0.009037305
171	0xbc4927f7	-0.012277595
172	0xbce74631	-0.028231712
173	0xbd2e7c46	-0.042598985
174	0xbd19cb10	-0.03754717
175	0xbd670a1d	-0.05640613
176	0xbcf9a676	-0.030474883
177	0xbd47ae9b	-0.0487505
178	0xbd4a5370	-0.04939598
179	0x3c10214b	0.008797
180	0x3ad8ba89	0.0016535084
181	0x3d19e967	0.037576105
182	0xbc530a2e	-0.012880845
183	0xbd17ece1	-0.03709114
184	0xbd8e736d	-0.069556095
185	0xbd1890ea	-0.037247576
186	0x3d52a049	0.05142239
187	0x3d6c3e77	0.05767676
188	0xb9f67241	-0.00047005902
189	0x3cbdc55a	0.023165394
190	0x3abcc903	0.0014403168
191	0x3c8766f3	0.016528582
192	0xbd51b43f	-0.051197287
193	0xbcafd456	-0.021463554
194	0xbd73f89c	-0.059563264
195	0xbc25e0a4	-0.010124359
196	0xbda557fc	-0.08073422
197	0xbd86f81c	-0.06590292
198	0xbd68d4de	-0.05684363
199	0xbd16cfe4	-0.036819354
200	0xbd83c9d3	-0.06434979
201	0x3ce5a6db	0.028033664
202	0xbd3bcfe7	-0.045852568
203	0x3c1a8e65	0.009433364
204	0xbd406f84	-0.04698135
205	0xbdaedb2b	-0.08537897
206	0xbda0b6a4	-0.07847336
207	0x3dbb7608	0.09153372
208	0xbd8cafd7	-0.06869476
209	0xbd80c5e4	-0.06287745
210	0x3d3ab315	0.045580942
211	0xbdaaedc3	-0.08346131
212	0x3b639463	0.0034725897
213	0x3d1155b2	0.035482116
214	0x3db34323	0.0875304
215	0x3b64668e	0.0034851166
216	0x3c6f6fd0	0.0146140605
217	0xbd000072	-0.031250425
218	0xbc512793	-0.012765783
219	0x3cc781ba	0.02435385
220	0xbd4e8d3b	-0.050427657
221	0xbc6232bf	-0.013806044
222	0xbd0f546e	-0.034992628
223	0xbc361cd2	-0.01111527
224	0x3b619081	0.0034418406
225	0x3cff2b8f	0.0311487
226	0xbc7f539b	-0.015583898
227	0xbd9bcbc8	-0.076072276
228	0x3a03ee29	0.0005032742
229	0x3c3589f9	0.0110802585
230	0xbdb5b60e	-0.08872615
231	0x3c0b570f	0.008504643
232	0x3ac0681c	0.0014679465
233	0xbd8f1853	-0.06987061
234	0xbd65e302	-0.056124695
235	0xbd985c76	-0.074395105
236	0xbd16d318	-0.03682241
237	0x3cd8388b	0.02639415
238	0xbb838da2	-0.0040146867
239	0xbd9261b5	-0.071475424
240	0x3d513c9d	0.051083196
241	0x3d07b114	0.03312786
242	0xbd79f70f	-0.06102663
243	0xbc952085	-0.018203983
244	0xbd888b1d	-0.06667159
245	0xbd410171	-0.047120515
246	0xbbd69831	-0.0065489043
247	0xbc5c1570	-0.0134328455
248	0xbd0ebce2	-0.0348481
249	0x3c373d4c	0.011184048
250	0xbd124e7d	-0.035719384
251	0xbd3c32e0	-0.045946956
252	0xbcc531d2	-0.024071608
253	0xbd04183a	-0.032249667
254	0x3c702038	0.014656119
255	0x3da0555b	0.0782878

fc3.weight f4 [128, 256]
0	0x3cd1c2bd	0.025605554
1	0xbe0b20ec	-0.13586777
2	0xbc7b418d	-0.015335453
3	0x3e61a689	0.22036184
4	0xbca90cce	-0.020635989
5	0x3d0a7588	0.033803493
6	0xbc28ea26	-0.010309732
7	0x3bc2e975	0.0059482404
8	0x3c0eeeaf	0.008723899
9	0xbdd92908	-0.10603529
10	0xbd67fa47	-0.056635167
11	0x3dbdf2dc	0.092748374
12	0xbd815f68	-0.063170254
13	0xbbaa7546	-0.0052019684
14	0x3c2052d3	0.009785372
15	0x3d8dac1c	0.06917593
16	0x3d861be5	0.06548289
17	0x3c28e935	0.010309507
18	0x3c259d22	0.010108264
19	0xba9d16b0	-0.0011984911
20	0x3ba36293	0.004986116
21	0x3daf0e51	0.085476525
22	0xbdac988a	-0.08427532
23	0x3da87109	0.08224685
24	0xbd525233	-0.051347923
25	0xbd6362c0	-0.055514097
26	0xbe07cd48	-0.13261902
27	0xbe09a1bb	-0.13440602
28	0x3d3d6a77	0.04624411
29	0x3beac19d	0.007164194
30	0x3c41d4d5	0.011830528
31	0x3d336a30	0.04380244
32	0xbd84fd25	-0.06493596
33	0xbd139fb1	-0.036040965
34	0xbd94aaa7	-0.07259112
35	0x3ded2bc7	0.115806155
36	0x3d015eb1	0.031584445
37	0xbd9d542c	-0.0768207
38	0xbd237cf8	-0.0399141
39	0x3d82013f	0.06347894
40	0x3ba48056	0.0050201816
41	0x3dc0f0b6	0.09420912
42	0xbdb4fed9	-0.08837671
43	0xba2160d5	-0.00061560917
44	0xbcfc457b	-0.03079485
45	0xbdf98d78	-0.12185186
46	0x3ca980aa	0.020691235
47	0xbbf72b77	-0.007543023
48	0x3df3b62f	0.11899983
49	0x3d954164	0.07287863
50	0x3d3fb471	0.04680294
51	0xbc176762	-0.009240957
52	0xbca75755	-0.020427385
53	0xbea24cbb	-0.31699166
54	0xbc1f3d9b	-0.009719278
55	0x3c2319f5	0.009954919
56	0xbc640190	-0.013916388
57	0x3da56076	0.08075039
58	0x3d0c7948	0.03429535
59	0x3c808291	0.015687259
60	0xbd88c054	-0.06677309
61	0x3cc561b5	0.024094442
62	0xbda28fd5	-0.0793759
63	0x3c4e69c5	0.01259846
64	0x3daff164	0.085909635
65	0x3d068bbb	0.0328481
66	0x3c667398	0.014065646
67	0xbd0064e4	-0.031346217
68	0xbe09c00d	-0.13452168
69	0x3da39da3	0.07989051
70	0x3cd3b129	0.025841312
71	0xbe2fbf47	-0.1716281
72	0xbdf1df67	-0.11810189
73	0xbdcc7639	-0.09983487
74	0x3ddce397	0.10785597
75	0x3d93441c	0.07190725
76	0x3cca3cc2	0.024687175
77	0x3d4c2f7a	0.049849965
78	0xbdcc325e	-0.09970544
79	0xbde96ae3	-0.1139734
80	0xbe185d6e	-0.1487939
81	0x3db4323a	0.087986425
82	0xbcc767e3	-0.02434153
83	0x3d4464b0	0.047947586
84	0x3c2dac5f	0.0106001785
85	0xbe023007	-0.12713633
86	0xbd4ea802	-0.050453193
87	0xbd5887dc	-0.05286394
88	0x3cee45e3	0.029086059
89	0x3d7ae470	0.06125301
90	0xbc621e5f	-0.013801186
91	0xbc557a14	-0.013029594
92	0x3c2c2b8d	0.01050843
93	0xbdad9d06	-0.084772155
94	0xbdb59fbe	-0.08868359
95	0x3d03cdab	0.032178562
96	0xbd9bf64a	-0.07615335
97	0xbd8b1124	-0.06790379
98	0x3d8247ba	0.06361337
99	0xbd890adf	-0.066915266
100	0x3c09d7cf	0.008413269
101	0x3d34e0b3	0.044159602
102	0x3d7442ef	0.059634145
103	0x3d3f5650	0.046713173
104	0x3de379da	0.11107226
105	0xbbd1e53f	-0.006405502
106	0x3d15409b	0.036438566
107	0x3e042ad7	0.12906967
108	0xbd95707c	-0.07296845
109	0x3aedbc41	0.0018137769
110	0xbda33f96	-0.079711124
111	0x3d085f48	0.033293992
112	0x3c106f84	0.00881565
113	0x3de75ad4	0.11296621
114	0x3db48524	0.08814457
115	0xbdd2bc08	-0.1028977
116	0xbd13a22a	-0.036043324
117	0x3e072d91	0.13200976
118	0x3dc868ed	0.09785638
119	0xbca70964	-0.02039022
120	0x3c8cd0ab	0.017189344
121	0x3da3049a	0.07959862
122	0x3caee48d	0.021349216
123	0x3b5587a1	0.0032582062
124	0xbcd410a9	-0.02588685
125	0xbcbb0cdf	-0.022833286
126	0x3d1a048c	0.037601992
127	0xbe2e0327	-0.1699339
128	0xbe1d5e90	-0.15368104
129	0xbcd19810	-0.025585204
130	0x3e004f4e	0.12530252
131	0x3da2b47c	0.07944581
132	0x3c0135d5	0.00788637
133	0x3cf0c263	0.029389566
134	0xbb865348	-0.0040992834
135	0x3d5bcf54	0.05366452
136	0x3b8c4a82	0.004281343
137	0x3d52bc05	0.05144884
138	0x3c9dccfe	0.019262787
139	0x3d5c9f19	0.053862665
140	0xbce4482e	-0.02786645
141	0x3d562442	0.052280672
142	0xbcf4c1fc	-0.029877655
143	0x3e20caed	0.1570241
144	0xbd292406	-0.04129412
145	0xbc6d18ac	-0.014471214
146	0xbd4b7ced	-0.049679685
147	0xbcc9764c	-0.024592541
148	0xbc37f71d	-0.01122835
149	0xbdaf4931	-0.08558882
150	0xbd8f54b1	-0.069985755
151	0x3e0edd6b	0.13951652
152	0x3cf830f5	0.030296782
153	0x3b3aa1d2	0.00284778
154	0xbc939a18	-0.018017814
155	0x3dd0f4fb	0.10202976
156	0xbcd2a7ac	-0.025714718
157	0x3d89f179	0.067355104
158	0x3d5f519f	0.0545212
159	0x3cdf5fc9	0.027267354
160	0x3ceda15b	0.029007604
161	0xbd81f9b9	-0.06346459
162	0x3da376f4	0.07981673
163	0xbe88b37e	-0.26699442
164	0xbcf2ae0c	-0.029624008
165	0xbd2abd60	-0.04168451
166	0xbcba0f20	-0.02271229
167	0x3d2983a4	0.041385308
168	0x3d2cde9d	0.042204488
169	0xbbe62dcd	-0.007024503
170	0x3d5a9b96	0.053371035
171	0xbd9301a2	-0.07178046
172	0x3d6c7414	0.05772789
173	0xbe877b2c	-0.2646116
174	0xbcad92bf	-0.021188138
175	0xbe07d72f	-0.1326568
176	0x3d30a179	0.043122742
177	0x3b95a29c	0.0045665037
178	0x3ce1250b	0.027483484
179	0xbe871ee3	-0.26390752
180	0xbddb898a	-0.10719593
181	0x3dbc45cf	0.091930024
182	0x3b806bb9	0.0039190915
183	0x3d907859	0.070542045
184	0x3d6c9574	0.057759717
185	0xbcffc98e	-0.031224038
186	0xbd5f7a0c	-0.054559752
187	0xbe7ea837	-0.24868856
188	0xbe61a137	-0.22034155
189	0xbd8533c3	-0.065040134
190	0xbd67302a	-0.056442417
191	0xbe1fba4e	-0.15598413
192	0x3d533da1	0.051572446
193	0x3c2b992e	0.010473533
194	0x3d2d9647	0.042379644
195	0x3a8646cd	0.0010244489
196	0x3d150362	0.03638018
197	0xbd8eb53b	-0.06968161
198	0x3d7d4b30	0.061839283
199	0x3dad1894	0.084519535
200	0x3ab59df8	0.0013856282
201	0xbdb73f2e	-0.089475974
202	0x3ce87c91	0.02837971
203	0x3da1e3e7	0.07904797
204	0xbeeb235a	-0.4592541
205	0xbbfa42af	-0.007637344
206	0x3dc4e219	0.09613437
207	0xbd3779dd	-0.044793952
208	0x3c4e10d3	0.012577253
209	0x3db10f61	0.086455114
210	0x3b4ff1ae	0.0031729746
211	0x3d74ba98	0.059748262
212	0xbe1d7b5e	-0.15379092
213	0xbd7211a2	-0.059098847
214	0x3d3d2765	0.046180148
215	0x3d94bb7a	0.07262321
216	0x3dc29f04	0.09502986
217	0xbcf040f3	-0.029327845
218	0xbaca1208	-0.0015416751
219	0xbd332a99	-0.043741796
220	0x3dfb5833	0.12272682
221	0xbddf42fb	-0.109014474
222	0x3dcc1603	0.09965136
223	0xbe2753a7	-0.16340505
224	0xbd03f226	-0.032213353
225	0xbda4b11e	-0.08041595
226	0x3d3e7470	0.046497762
227	0x3e54e066	0.20788726
228	0x3ca8ec50	0.020620495
229	0x3d1ef9b5	0.038812358
230	0x3d4b6dc4	0.049665228
231	0x3c4c2877	0.012460819
232	0x3cfadf83	0.030624157
233	0x3d52ea3c	0.051492915
234	0xbc7e0a53	-0.015505391
235	0xbd137c12	-0.036006995
236	0x3d8a2e0e	0.067470655
237	0xbe16622f	-0.14685892
238	0x3cc077fc	0.023494713
239	0x3dab38ed	0.08360467
240	0x3d5ee595	0.054418165
241	0xbe19c645	-0.1501704
242	0x3dae604d	0.08514462
243	0xbc400470	-0.011719808
244	0x3cc0650c	0.023485683
245	0xbc834ae8	-0.016026929
246	0x3d4f378d	0.050590087
247	0x3d2e06d2	0.042486973
248	0xbabfe0f9	-0.0014639191
249	0xbd1892b5	-0.037249286
250	0x3d32dea4	0.043669358
251	0xbc6a3b23	-0.014296326
252	0xbd027ca7	-0.03185716
253	0x3b307cef	0.0026929935
254	0x3d86ee97	0.06588476
255	0xbc67231b	-0.014107491

fc3.bias f4 [128]
0	0x3ccae236	0.024766069
1	0xbd6eb781	-0.05828047
2	0x3d83743b	0.064186536
3	0x3dbe4772	0.09290971
4	0x3cce98a5	0.025219271
5	0x3c09b54e	0.008405043
6	0xbcad5e13	-0.021163022
7	0x3d02ee83	0.031965744
8	0xbda592d7	-0.08084648
9	0xbca64dbd	-0.02030074
10	0x3c021b4f	0.007941081
11	0xbd486eb2	-0.048933692
12	0xbd1b75a7	-0.037954
13	0x3cbee6f1	0.02330348
14	0x3d4196e9	0.04726306
15	0xbd728383	-0.05920745
16	0xbbf94aa2	-0.007607774
17	0x3d101888	0.035179645
18	0x3c8d0d32	0.017218206
19	0x3c4a137b	0.012333746
20	0xbc3fc8af	-0.011705562
21	0x3d2cfdab	0.042234104
22	0x3db0b2b3	0.08627834
23	0x3d20a328	0.039218098
24	0x3d3a8f44	0.045546785
25	0x3d889232	0.066685095
26	0xbcb2920a	-0.021798152
27	0x3ae253e3	0.0017267432
28	0x3b505f12	0.0031794948
29	0xbcd6ef96	-0.02623729
30	0x3c9599e6	0.018261861
31	0x3ce62887	0.028095497
32	0xbd15368b	-0.03642897
33	0x3dacf6a6	0.08445482
34	0xbc489542	-0.012242617
35	0x3cf56eed	0.02996012
36	0xbd7d1354	-0.06178601
37	0x3e16c498	0.14723432
38	0xbd0ba2c4	-0.034090772
39	0x3c7c4f44	0.015399758
40	0xbc05bcf5	-0.008162727
41	0x3d71335a	0.058886863
42	0xbcefd25e	-0.029275116
43	0x3d90968c	0.070599645
44	0x3d9b26f7	0.07575791
45	0x3b081361	0.0020763504
46	0xbd480b83	-0.048839103
47	0xbcc9ce1c	-0.024634413
48	0xbd2d5101	-0.04231358
49	0x3ca32540	0.019915223
50	0x3e0e202e	0.13879463
51	0xbd022706	-0.031775497
52	0xbd25f74d	-0.040519048
53	0xbcbe9a2a	-0.02326687
54	0xbd52f47f	-0.0515027
55	0x3d5a3a69	0.05327836
56	0xbd2e6323	-0.042575013
57	0x3c8a1716	0.016856711
58	0x3de4dc8f	0.11174881
59	0x3dc3d9b2	0.095630065
60	0x3cd0699e	0.025440987
61	0xbd48b322	-0.04899896
62	0xb970518d	-0.00022918564
63	0x3d6af34a	0.057360925
64	0xbd05aabd	-0.03263353
65	0x3b52cbfc	0.0032165041
66	0x3d0f1bb9	0.034938548
67	0xbd842de9	-0.06454069
68	0xbd21470b	-0.039374392
69	0x3cbc73eb	0.023004493
70	0x3d6f2675	0.058386285
71	0xbce0c0c4	-0.027435668
72	0x3bb2bc32	0.0054545635
73	0x3dd5080d	0.10401926
74	0x3cb3d059	0.021949934
75	0xba45343f	-0.0007522739
76	0x3d03bd7c	0.03216313
77	0x3d23a39d	0.039950956
78	0xbc87850e	-0.016542938
79	0x3c0139b0	0.007887289
80	0x3d5860ae	0.052826576
81	0xbd0fcaf2	-0.035105653
82	0x3b5d60e8	0.0033779684
83	0x3d0b0d12	0.03394801
84	0x3bf36eae	0.0074289655
85	0x3d011dd4	0.031522587
86	0x3d073d45	0.033017416
87	0x3e0ec369	0.1394173
88	0x3c842035	0.016128639
89	0x3da9741f	0.082741015
90	0x3b9e6582	0.004833878
91	0x3c577c75	0.013152231
92	0xbcc2e519	-0.023790883
93	0x3dbcd7c3	0.09220841
94	0x3e1396e3	0.14413027
95	0xbd3059e7	-0.043054488
96	0xbcf86738	-0.030322656
97	0x3c245a58	0.010031305
98	0x3bf151ba	0.007364479
99	0xbd28ec42	-0.041240938
100	0xbce4e241	-0.027939918
101	0xbca69e4a	-0.02033915
102	0x3d7a311c	0.06108199
103	0x3db76939	0.089556165
104	0x3d50ebd4	0.051006153
105	0x3d2e00a2	0.042481072
106	0x3e07fc22	0.13279775
107	0xbd7ccf50	-0.061721146
108	0x3cc008e0	0.023441732
109	0xbc4799ec	-0.012182694
110	0x3dc897c6	0.097945735
111	0xbcaa37a0	-0.020778477
112	0x3d6d7805	0.057975788
113	0x3cdc5184	0.026894338
114	0x3dbe8f87	0.093047194
115	0xbcba6fee	-0.02275845
116	0xbc0d324e	-0.008617951
117	0xbd0d09ed	-0.034433294
118	0x3dd0cc5e	0.1019523
119	0xbc1c68b3	-0.009546447
120	0x3dc865f8	0.09785074
121	0xbcf767e2	-0.030200902
122	0x3d18c9d8	0.03730187
123	0x3d05de08	0.03268245
124	0x3d909eab	0.070615135
125	0x3c9e64b7	0.019335134
126	0xbd367c26	-0.04455199
127	0xbc633a3c	-0.013868865

fc4.weight f4 [64, 128]
0	0x3d417b77	0.047236886
1	0x3cd667ec	0.0261726
2	0xbd4d688f	-0.050148543
3	0x39d67100	0.00040901452
4	0xbcb0a23c	-0.021561734
5	0x3ba29a3c	0.004962234
6	0x3d0da760	0.03458345
7	0x3b8e4c70	0.004342608
8	0x3c814948	0.015782014
9	0x3d4897de	0.048972957
10	0xbc01e6a6	-0.007928526
11	0xbda733de	-0.0816419
12	0xbd7485ac	-0.059697792
13	0xbd01339b	-0.031543355
14	0xbd99bbe5	-0.07506541
15	0xbd080261	-0.033205394
16	0x3d7b80a9	0.061401997
17	0xbd00398b	-0.031304877
18	0xbcc65a27	-0.02421291
19	0xbb26f780	-0.0025477111
20	0x3d28bf3e	0.041198008
21	0x3d760401	0.060062412
22	0x3d002b35	0.031291205
23	0xbd7f412d	-0.062318016
24	0x3cb657b2	0.022258613
25	0x3ae4d0c0	0.0017457232
26	0x3cf0ad51	0.029379519
27	0x3c2af332	0.010433959
28	0x3cc10281	0.023560764
29	0x3d93f05f	0.072235815
30	0xbbfd3260	-0.0077269524
31	0x3d081ad9	0.03322873
32	0x3da23ff7	0.079223566
33	0xbd96d17b	-0.07364174
34	0x3ca212bc	0.019784324
35	0x3d3d9629	0.046285782
36	0xbd24bdcf	-0.040220078
37	0x3adb112e	0.0016713494
38	0x3d278bb2	0.04090471
39	0x39075d7a	0.00012909426
40	0x3c84b3b9	0.01619898
41	0xbd1748d3	-0.036934685
42	0xbce37d52	-0.027769718
43	0x3d390723	0.04517282
44	0xbd80d477	-0.062905245
45	0x3d71bed7	0.05901989
46	0xbd18fc72	-0.037350126
47	0xbda709d2	-0.0815617
48	0x3ba03840	0.004889518
49	0xbca2777d	-0.019832367
50	0xbd2f7b61	-0.042842273
51	0xbd917ad0	-0.07103503
52	0xbd3de44b	-0.046360295
53	0x3c5e5940	0.013571084
54	0x3cedbb70	0.029020041
55	0x3d6a5e9d	0.057219137
56	0xbd8dbb40	-0.06920481
57	0xbd843011	-0.064544804
58	0x3d8b566a	0.068035915
59	0xbd2ea7e2	-0.042640574
60	0x3c6a5455	0.014302333
61	0xbd32c9aa	-0.043649353
62	0xbc497ae0	-0.012297362
63	0xbd111bf1	-0.035427038
64	0xbd32da3e	-0.043665163
65	0x3d006d78	0.031354398
66	0xbd8d9481	-0.069130905
67	0xbd752bec	-0.05985634
68	0x3d0601fd	0.03271674
69	0xbd91bbd6	-0.07115905
70	0x3d1dca4e	0.03852301
71	0x3d44e936	0.04807397
72	0x3d890b53	0.06691613
73	0xbdb79314	-0.089636
74	0xbca92d7e	-0.020651575
75	0x3cc7f328	0.024407938
76	0xbd943518	-0.07236689
77	0x3d1bedb1	0.038068477
78	0x3cca03b4	0.024659969
79	0x3c7eca8d	0.015551222
80	0x3d00e25e	0.03146588
81	0xbdb04795	-0.08607403
82	0x3d6f59ad	0.05843513
83	0x3d3800ba	0.044922568
84	0xbd506ecf	-0.050886925
85	0xbd29f0f9	-0.041489575
86	0xbb3434c8	-0.002749728
87	0xbd6072ba	-0.05479691
88	0x3ceba583	0.028765446
89	0x39b32f5a	0.0003417682
90	0xbcdd84b5	-0.027040819
91	0xbd2b868a	-0.041876353
92	0xbd497d8a	-0.04919199
93	0xbc6c8de1	-0.014438123
94	0xbda60c03	-0.0810776
95	0xbd99dede	-0.07513212
96	0x3daac6f3	0.08338728
97	0x3c8a2f6c	0.016868316
98	0x3d1a4757	0.03766569
99	0x3d325ec6	0.043547414
100	0x3d9e2d45	0.07723478
101	0x3cefe67f	0.029284714
102	0xbd09cfd1	-0.033645455
103	0xbd9f5a49	-0.077808924
104	0x3bb07ef3	0.0053862273
105	0xbd6b47e3	-0.057441603
106	0x3d3f214b	0.04666261
107	0x3d648c0e	0.05579763
108	0x3c041718	0.008062147
109	0xbbccbb50	-0.0062479153
110	0xbd5c24dc	-0.05374609
111	0xbd07c569	-0.03314725
112	0xbda1d8d9	-0.079026885
113	0x3c438a31	0.011934803
114	0xbcc089b0	-0.023503155
115	0x3d8fd4dd	0.07023022
116	0x3cfd6b99	0.030935096
117	0xbb149de0	-0.0022677109
118	0xbcafd48f	-0.02146366
119	0xbd84f252	-0.064915314
120	0xbd4c48d7	-0.049874153
121	0xbd894200	-0.067020416
122	0xbd27785d	-0.04088627
123	0xbba9ff1a	-0.005187881
124	0xbd3fe75c	-0.0468515
125	0xbb59a257	-0.0033208334
126	0xbd32c7c8	-0.043647557
127	0x3d99c279	0.07507796
128	0xbc584a4a	-0.013201306
129	0x3d632378	0.055453748
130	0x3c87f137	0.016594512
131	0xbe16a10e	-0.14709875
132	0x3dadf052	0.08493103
133	0xbbf26b43	-0.0073980405
134	0x3dd5fc7c	0.10448548
135	0xbd8b0443	-0.06787922
136	0xbdd4883e	-0.10377549
137	0xbf666ea1	-0.90012556
138	0xbd7a3f30	-0.061095417
139	0x3dd87ac7	0.10570293
140	0x3a4f883b	0.0007916723
141	0x3d8c91a6	0.06863718
142	0x3ddd5e4d	0.10809002
143	0x3d1e7c5f	0.03869283
144	0x3e117f4d	0.14208718
145	0xbe3eddd5	-0.1863931
146	0xbd11b96a	-0.035577215
147	0x3c3558bd	0.01106852
148	0x3dd66b97	0.1046974
149	0x3d3d35d2	0.046193905
150	0xbd87fcf1	-0.066400416
151	0x3d434029	0.04766861
152	0x3d107fe3	0.035278212
153	0xbd8318d6	-0.064012215
154	0x3b6dca51	0.003628392
155	0x3e00887d	0.12552066
156	0x3d36a4dc	0.044590816
157	0xbce25ee3	-0.027633136
158	0x3aea1943	0.0017860312
159	0xbd1ccbcc	-0.038280293
160	0xbd821a34	-0.06352654
161	0x3df7df91	0.12103189
162	0xbdffd6fc	-0.12492177
163	0x3da7372d	0.08164821
164	0x3b9fc534	0.0048758034
165	0xbd57c016	-0.05267342
166	0x3d9ee1d8	0.0775792
167	0xbf33ff2c	-0.70311236
168	0xb8504a68	-4.966036e-05
169	0x3e0cf412	0.1376498
170	0x3ddfc150	0.10925543
171	0x3b1e79e0	0.002418153
172	0x3d946069	0.07244951
173	0x3c0253d0	0.007954553
174	0xbd17fb52	-0.037104912
175	0x3e2087b9	0.15676774
176	0xbbe72dd6	-0.0070550246
177	0xbda07205	-0.078342475
178	0x3cdd0d25	0.026983807
179	0x3d01f1f1	0.031724874
180	0xbd5d9fad	-0.054107357
181	0xbe9dd7c2	-0.30828673
182	0xbe7dc7d8	-0.24783266
183	0xbd3ecf64	-0.0465845
184	0x3dc6a65a	0.09699698
185	0xbeb17b0c	-0.3466419
186	0x3d1a02ec	0.037600443
187	0x3d93a49e	0.072091326
188	0xbd91f424	-0.07126644
189	0xbd7e2a92	-0.062052317
190	0x3e9fdbe1	0.31222442
191	0xbe334caa	-0.17509714
192	0x3d4d2517	0.0500842
193	0xbeba6d65	-0.36411586
194	0xbd4e83c5	-0.050418634
195	0x3ca60fa6	0.020271134
196	0xbd9cff12	-0.07665838
197	0x3d52ffed	0.0515136
198	0xbe7c22ce	-0.24622652
199	0xbe4cb207	-0.19989787
200	0xbe174223	-0.14771323
201	0x3c9518ad	0.018200243
202	0xb933d2bc	-0.00017149275
203	0x3e8ecc90	0.27890444
204	0xbd3ea51f	-0.04654419
205	0x3db73f5a	0.0894763
206	0xbd856636	-0.06513636
207	0x3c8426c8	0.016131774
208	0x3c96c213	0.018403089
209	0x3d8a4391	0.067511685
210	0x3cab9dbf	0.020949243
211	0xbd0603ef	-0.032718595
212	0xbcde0876	-0.027103644
213	0x3e26c975	0.16287787
214	0xbdd9f3a8	-0.10642177
215	0x3d437e33	0.047727775
216	0x3ddf13b6	0.108924314
217	0xbe0375a6	-0.12837848
218	0xbed5afb8	-0.41735625
219	0x3db7a380	0.08966732
220	0x3cd6c451	0.026216658
221	0x3b5b1ab5	0.0033432667
222	0x3b8f1144	0.004366072
223	0x3a11706e	0.00055480644
224	0xbe478d45	-0.19487484
225	0x3dbc0d56	0.09182231
226	0x3d0ffb05	0.0351515
227	0x3da5bffa	0.08093257
228	0x3c14fac1	0.0090929875
229	0x3d8f6535	0.070017256
230	0xbda218df	-0.079149
231	0x3d10e4c5	0.03537442
232	0xbe4a1dfe	-0.19738004
233	0x3dbbba74	0.091664225
234	0xbe73ca9f	-0.23807763
235	0xbbb5caf0	-0.0055478737
236	0xbddd0f4f	-0.107939355
237	0xbe5caf52	-0.21551254
238	0xbc07ee5e	-0.008296577
239	0x3de7e67b	0.113232575
240	0x3d6ce864	0.057838812
241	0x3d9c1d03	0.07622721
242	0x3d909696	0.07059972
243	0x3e3e3266	0.18573913
244	0xbeed9169	-0.46400002
245	0xbddf5dc2	-0.10906555
246	0xbe8afddb	-0.271468
247	0xbe604c15	-0.21904023
248	0x3d85cd88	0.065333426
249	0x3c0c7749	0.008573362
250	0xbe1ca527	-0.15297376
251	0x3d8841b8	0.0665316
252	0x3da2d6a8	0.07951099
253	0x3d513d6b	0.051083963
254	0x3d74b3ba	0.059741713
255	0x3d8499ea	0.06474669

fc4.bias f4 [64]
0	0xbd567a6f	-0.052362856
1	0xbcc9ba75	-0.024625042
2	0xbd46bac7	-0.04851797
3	0xbdd20bfc	-0.10256192
4	0x3d1757e1	0.036949042
5	0x3b6fede5	0.0036610302
6	0x3e258832	0.16165236
7	0x3d8fbf23	0.07018878
8	0x3e6c77f2	0.2309263
9	0x3ddd6ab5	0.108113684
10	0xbd75877b	-0.059943657
11	0x3dcbbf22	0.09948565
12	0x3d42a8ac	0.04752414
13	0x3df00fe6	0.117217824
14	0xbd69ad9c	-0.057050332
15	0xbce2c710	-0.027682811
16	0xbbf07d43	-0.007339151
17	0x3e7be715	0.2459987
18	0x3e0e5608	0.13900006
19	0xbd2b5d99	-0.04183731
20	0x3d706886	0.05869343
21	0xbba7c26a	-0.0051196115
22	0x3e6b60a4	0.22986084
23	0x3d913a1c	0.070911616
24	0x3dfc6d50	0.12325537
25	0x3e06881c	0.13137859
26	0x3dd66047	0.10467582
27	0x3e3303fe	0.17481992
28	0x3e1595f0	0.14607978
29	0x3d901da3	0.07036903
30	0xbc2d1bb0	-0.010565683
31	0xbd90de7a	-0.07073684
32	0x3cd2a47e	0.025713202
33	0x3e223ce8	0.15843546
34	0xbd30621a	-0.043062307
35	0x3dccad09	0.09993941
36	0x3d91d248	0.07120186
37	0x3e1b44e2	0.15162995
38	0x3de0729e	0.109593615
39	0x3e3b37ea	0.18283048
40	0xbcc86a9b	-0.024464896
41	0x3e1f26fe	0.15542218
42	0xbd8ed281	-0.06973744
43	0x3d287178	0.041123837
44	0x3cd6daa4	0.026227303
45	0x3cbc6dcc	0.023001574
46	0x3d3f4883	0.046700012
47	0xbb72cf61	-0.0037049877
48	0x3e20bcf3	0.15697078
49	0x3dbcc862	0.092179075
50	0x3da796b2	0.0818304
51	0x3d099c19	0.033596132
52	0x3c88be6c	0.016692363
53	0x3e32509b	0.17413561
54	0x3e11a412	0.14222744
55	0x3d7b8481	0.061405662
56	0xb95dcbd3	-0.00021152133
57	0x3dcc6fa9	0.09982235
58	0x3d116fa9	0.035506878
59	0x3d71bfae	0.05902069
60	0xbd830482	-0.06397344
61	0x3e05a0d6	0.13049635
62	0x3da712ed	0.08157907
63	0x3b214ad8	0.002461126
